…
E:\pythonProject\faceTest\Practice\zhoumingyu\94.jpg
E:\pythonProject\faceTest\Practice\zhoumingyu\95.jpg
E:\pythonProject\faceTest\Practice\zhoumingyu\96.jpg
E:\pythonProject\faceTest\Practice\zhoumingyu\97.jpg
E:\pythonProject\faceTest\Practice\zhoumingyu\98.jpg
E:\pythonProject\faceTest\Practice\zhoumingyu\99.jpg
(3860, 64, 64, 3)
(3860,)
[5 5 5 ..., 5 5 5]
1930 train examples
1158 valid examples
1930 test examples
_________________________________________________________________
Layer (type)                 Output Shape              Param #   
=================================================================
conv2d_1 (Conv2D)            (None, 64, 64, 32)        896       
_________________________________________________________________
activation_1 (Activation)    (None, 64, 64, 32)        0         
_________________________________________________________________
conv2d_2 (Conv2D)            (None, 63, 63, 32)        4128      
_________________________________________________________________
activation_2 (Activation)    (None, 63, 63, 32)        0         
_________________________________________________________________
max_pooling2d_1 (MaxPooling2 (None, 31, 31, 32)        0         
_________________________________________________________________
dropout_1 (Dropout)          (None, 31, 31, 32)        0         
_________________________________________________________________
conv2d_3 (Conv2D)            (None, 31, 31, 64)        18496     
_________________________________________________________________
activation_3 (Activation)    (None, 31, 31, 64)        0         
_________________________________________________________________
conv2d_4 (Conv2D)            (None, 29, 29, 64)        36928     
_________________________________________________________________
activation_4 (Activation)    (None, 29, 29, 64)        0         
_________________________________________________________________
max_pooling2d_2 (MaxPooling2 (None, 14, 14, 64)        0         
_________________________________________________________________
dropout_2 (Dropout)          (None, 14, 14, 64)        0         
_________________________________________________________________
flatten_1 (Flatten)          (None, 12544)             0         
_________________________________________________________________
dense_1 (Dense)              (None, 512)               6423040   
_________________________________________________________________
activation_5 (Activation)    (None, 512)               0         
_________________________________________________________________
dropout_3 (Dropout)          (None, 512)               0         
_________________________________________________________________
dense_2 (Dense)              (None, 6)                 3078      
_________________________________________________________________
activation_6 (Activation)    (None, 6)                 0         
=================================================================
Total params: 6,486,566
Trainable params: 6,486,566
Non-trainable params: 0
_________________________________________________________________
E:/pythonProject/faceTest/face_train_use_keras.py:164: UserWarning: The semantics of the Keras 2 argument `steps_per_epoch` is not the same as the Keras 1 argument `samples_per_epoch`. `steps_per_epoch` is the number of batches to draw from the generator at each epoch. Basically steps_per_epoch = samples_per_epoch/batch_size. Similarly `nb_val_samples`->`validation_steps` and `val_samples`->`steps` arguments have changed. Update your method calls accordingly.
…
